assets/models/numers_model/sign_language_model.tflite (tflite, 26184 bytes, 8 tensors)

arith.constant f4 [128]
000000 04 d3 4e 3c 5c 45 16 3d cf 69 b5 bb 28 ac d8 3c
       0.012623552 0.03668724 -0.005536295 0.026449278
000010 4c b6 8e bb 13 b6 77 bc 4d d9 52 3b 28 94 97 bc
       -0.0043552276 -0.0151190935 0.0032172978 -0.018503264
000020 47 82 80 3c 5a 9c b8 3c 86 1f 1d 3c ad 76 18 bb
       0.015687121 0.022535492 0.009590035 -0.0023264096
000030 2d a1 80 3c 08 43 4b bc 3f ed 9f 3c a5 c0 0d bb
       0.015701855 -0.012406118 0.019522307 -0.0021629718
000040 c4 b8 48 3c 7c 2b f8 bc ab 8f d4 bb 8d bf b8 bb
       0.012251083 -0.030294172 -0.006486853 -0.005638069
000050 cd f7 53 3c 94 de 4a bc e1 65 76 3c c5 d3 87 bc
       0.012937498 -0.012382168 0.015038938 -0.016580472
000060 d9 f0 b5 bb 00 54 84 3c b9 d9 69 bc 0c 32 c7 3c
       -0.005552393 0.016153336 -0.0142731005 0.024315856
000070 5c 2b 0b 3d a3 ae a3 3b 9b 0b bb 3c e4 6b 37 3c
       0.033976898 0.0049951836 0.022832682 0.011195157
000080 fd 65 26 3b 73 75 34 bb e2 ad 26 bc 85 e0 45 3c
       0.002539038 -0.0027535826 -0.010173293 0.012077455
000090 06 d3 d5 3c c0 a0 2e 3c ad 6f 86 3b 5a cb 3b bb
       0.0261016 0.010658443 0.0041026683 -0.0028655143
0000a0 57 59 0e bc 0d 3e bb 3b 09 34 01 3c bf 5b a7 bc
       -0.0086882925 0.005714184 0.007885941 -0.02042949
0000b0 43 5d a0 3c 76 e6 6e bc 55 26 b1 ba be 78 3b bb
       0.01957572 -0.014581313 -0.0013515452 -0.0028605903
0000c0 1b 3b b8 bc e0 59 4c bb e8 27 47 3c a7 a8 01 3d
       -0.022489121 -0.00311815 0.0121555105 0.03165498
0000d0 9c 7a b6 3b 88 07 38 bc bd 73 2e bc eb 68 72 bc
       0.0055688154 -0.011232264 -0.010647711 -0.014795522
0000e0 25 d7 39 bb 96 2c ca 3a c9 1b a5 3b 6f 7b 9c 3a
       -0.0028356996 0.0015424665 0.0050387126 0.0011938642
0000f0 75 8f d8 3a 0e 38 7e 3c aa 55 ad bb cf 35 12 bc
       0.0016522246 0.015516294 -0.005289753 -0.008923962
000100 80 f9 b8 3b 68 ae 81 3c b7 04 84 3c ee 29 eb b7
       0.005644977 0.015830234 0.01611553 -2.8033708e-05
000110 9f b1 d0 3b 28 d5 f9 3b 8f 86 ed 3a 15 df a7 3c
       0.0063688303 0.007624287 0.0018121767 0.020492116
000120 fb cf 6f 3b dc 8d a7 3c 4b d6 c8 bb a3 35 51 39
       0.0036592472 0.020453386 -0.0061290613 0.00019951774
000130 e3 b8 07 3c 26 17 61 3c 77 22 91 bc 7f bc b7 3c
       0.0082838265 0.013738429 -0.01771663 0.02242875
000140 9b 2f a5 3c dd 38 73 bc 28 32 e0 bc 04 b0 c4 3c
       0.020164302 -0.0148451 -0.027367666 0.024009712
000150 9d 04 6f bc 79 38 5d bb f3 d7 d7 3c 01 bf 1b bc
       -0.014588502 -0.0033755584 0.02634809 -0.009505988
000160 90 50 4b bc 6d 21 8d bb 17 88 c8 3c 5c 11 61 bb
       -0.012409344 -0.004306963 0.024478955 -0.0034342622
000170 2f 0e 5e bb 75 01 e9 bc 20 a5 b7 3b 7f d2 49 3c
       -0.0033882966 -0.028443078 0.005604401 0.012318253
000180 1b 05 10 3c ee 3f 7f bc c7 5a 10 bb 38 5b cc bb
       0.00879028 -0.015579207 -0.0022026764 -0.00623646
000190 d0 ff 92 ba 00 60 8d bb 4c 14 0f 3c 59 1e 3a bb
       -0.0011215154 -0.0043144226 0.0087328665 -0.0028399436
0001a0 55 0b 53 3c c5 ce 3b bb a1 18 05 bc bc a6 a6 3c
       0.01288112 -0.002865718 -0.008123548 0.020343177
0001b0 9d 86 2a bc dd 66 ec 3c d0 4c 54 bc 1f b0 d4 ba
       -0.010408071 0.028857643 -0.012957767 -0.0016226805
0001c0 d0 9d 6f 3c 33 00 0a bc ab b7 6a 3c 77 ad fc bb
       0.014625028 -0.008422899 0.014326016 -0.0077111083
0001d0 51 ac ba 3c f7 9a ca 3c ae be 57 bb f0 d1 3b bb
       0.022787245 0.024732096 -0.003292005 -0.0028659068
0001e0 ec 99 0a 3c ce 3a 88 3c 18 d4 a3 3a e7 ad a6 3c
       0.008459549 0.016629603 0.0012499122 0.020346595
0001f0 e3 84 dc 3c f4 b2 09 bc 56 ad 39 bb 88 6f af 3c
       0.026918834 -0.008404482 -0.0028332076 0.021415487

arith.constant1 f4 [32]
000000 08 1d 55 3e 3b c8 3e 3d cc 87 ad 3d 0f c2 c9 3c
       0.20811856 0.046577673 0.08473167 0.024628667
000010 d2 b5 bd 3d 30 b6 a5 3d 14 cd be 3d 95 b7 a4 3d
       0.09263195 0.0809139 0.09316459 0.08042828
000020 7a 0b 46 3e 38 8e 2a 3e d7 20 ab 3d 45 7f fb 3d
       0.19340315 0.16655815 0.08355873 0.12280134
000030 2c f3 b5 bc 3d 69 4f 3d 42 d5 84 3d 2a 0d f3 3d
       -0.02221068 0.050637472 0.06485988 0.11867745
000040 72 84 52 3d 3f 33 8d 3d 83 d4 81 3d 45 1b 9e 3d
       0.05139584 0.0689454 0.063393615 0.07720045
000050 04 24 b4 3d 80 82 b6 3d 33 0b b5 3d 6c 1b 15 3e
       0.08795932 0.0891161 0.08840027 0.14561242
000060 cc 53 08 3e 0e 94 9c 3b ec 36 18 3d cd 97 1a 3e
       0.13313216 0.0047783917 0.037161753 0.1509697
000070 f6 7b 32 3e 0f 05 17 3e 4b a0 c5 3b b6 78 d9 3d
       0.174301 0.14748023 0.0060310713 0.10618727

arith.constant2 f4 [11]
000000 89 d2 7d bd 2b 42 9f 3d 29 7e 5e 3d 12 15 ab 3d
       -0.06196836 0.077762924 0.054319534 0.08353628
000010 0f b4 11 3c 32 6a 3b 3d aa b7 88 bd fb 52 07 be
       0.008893027 0.045755573 -0.06675656 -0.13215248
000020 0d eb be bd 76 57 df bc ec 85 89 3d
       -0.09322176 -0.027263384 0.06714997

arith.constant3 f4 [11, 32]
000000 0b 8b 5b 3e 99 c3 d7 bc d0 b6 0d bd 83 0a c4 3d
       0.2143976 -0.026338385 -0.03459817 0.095723175
000010 c4 fb 17 be 36 bf d9 3e 1b 14 19 bd 68 64 63 be
       -0.14842135 0.42528695 -0.03737269 -0.2220627
000020 09 2a 3a be 4b 44 07 3e 59 49 77 be 4d 34 bf be
       -0.18180098 0.13209645 -0.24149074 -0.3734459
000030 04 5e ce 3c ad ea 35 bd 0d 4e 96 bd 12 43 8b 3e
       0.025191315 -0.044413257 -0.07339106 0.27199608
000040 73 a3 dc be de 97 35 be 97 2f b4 3d af d1 36 bc
       -0.43093452 -0.17733714 0.087981395 -0.011158391
000050 b6 e2 b7 bd 3b 96 bd 3e 6f f4 48 3e 8e 57 ed bc
       -0.089787886 0.3702868 0.19624494 -0.028972413
000060 5c 9e 0a bf a3 c7 8a 3d 9a c2 6b 3e e3 f3 82 3d
       -0.5414789 0.06776359 0.23023453 0.06394174
000070 d8 ca 6a be 3b 68 25 bf 30 b3 0b 3e 9d 98 ca bd
       -0.22928941 -0.6461217 0.13642573 -0.0989239
000080 e6 f5 8e 3c a4 d2 16 3e 4f b9 06 3f b6 58 82 3e
       0.017451238 0.1472879 0.5262651 0.25458306
000090 97 07 39 3e e7 d0 17 3e f8 a4 1f 3d f3 7f d0 bd
       0.18069302 0.14825784 0.038975686 -0.101806544
0000a0 46 cb 07 be 3b 00 2c bd b1 67 c3 bc 33 6f 46 3e
       -0.13261136 -0.041992407 -0.023853155 0.19378357
0000b0 88 a3 2f 3e 63 c2 a4 3d d8 14 be bd dd ad 01 bf
       0.17152226 0.08044889 -0.092813194 -0.5065592
0000c0 3c f9 63 bd 0f e7 a0 3e 1d 31 bc be cf f5 10 3e
       -0.05565761 0.31426284 -0.3675622 0.14156269
0000d0 23 a8 6a 3e 5c 89 6f 3e e1 b5 01 bf 3d a3 92 be
       0.22915702 0.23392242 -0.5066815 -0.28640166
0000e0 97 b6 8b bd a7 3a 52 be f2 ae e3 bd 0a 7e d7 3d
       -0.068219356 -0.20530187 -0.111173525 0.10522087
0000f0 83 d4 29 be 65 d0 e1 be 4a 0d 18 3e 95 0e 18 bf
       -0.16584973 -0.44104305 0.1484882 -0.5939725
000100 6a 43 3b 3e 96 42 17 bd 94 99 19 be 7c 79 d3 bd
       0.18287435 -0.036928736 -0.14999992 -0.10325906
000110 bf f8 35 3e ea 37 83 be 2a 44 d1 bd 2d 4c 1b ba
       0.1777067 -0.25628597 -0.102180794 -0.0005924132
000120 43 26 f9 3d 10 79 ed 3d bd 0d 05 be 01 f3 cd 3e
       0.12165501 0.115953565 -0.12993522 0.4022446
000130 07 11 83 be e4 d9 36 be c6 35 87 3d e1 85 dc 3c
       -0.25598928 -0.17856556 0.06602053 0.026919307
000140 c2 68 98 3e 4a 29 7b 3e ad c1 81 bc 8c 80 c3 3e
       0.29767424 0.2452747 -0.015839422 0.3818401
000150 e7 79 17 be 02 c1 3e be 3e 0b ec be e5 08 02 bf
       -0.14792596 -0.18628314 -0.46102327 -0.5079482
000160 23 9a 82 bd 47 0c 26 be bb 6b a3 bd 95 c4 a4 be
       -0.063770555 -0.16215621 -0.07979532 -0.3218123
000170 b2 d7 e1 3e 94 7b 52 be 92 da ab 3d 8f f3 0c be
       0.44109875 -0.20554954 0.08391298 -0.13764785
000180 98 84 8c 3e 80 05 75 be b3 fd c7 be 54 82 bb be
       0.2744491 -0.2392788 -0.39060745 -0.3662287
000190 64 2f 63 be 37 42 a0 3e cb 6f 93 bd 21 52 95 be
       -0.22186047 0.31300518 -0.07199057 -0.29164222
0001a0 8c 38 6e 3e cd d0 dc 3d 15 26 7c 3e c3 c2 31 3e
       0.23263758 0.10782013 0.24623902 0.17359452
0001b0 91 01 61 be ed a2 8c 3e 80 f9 ca bd 4f c9 b4 be
       -0.21973254 0.27468053 -0.099108696 -0.35309836
0001c0 5d 86 4f 3e 04 49 86 be 90 d4 06 be 92 6c 12 bd
       0.202661 -0.26227582 -0.13167024 -0.035748072
0001d0 62 a6 4a bd 02 e6 89 be 93 91 ce be cb 5a ab be
       -0.04947508 -0.26933295 -0.4034544 -0.33467707
0001e0 86 2b 67 be 34 00 23 3e 39 0e 98 be 4d 7d e9 3e
       -0.22575197 0.15918046 -0.2969835 0.4560341
0001f0 4b c2 44 3e f6 a3 9b be 4f 25 a8 be da 3c ad be
       0.19214742 -0.3039853 -0.32840964 -0.3383549
000200 b5 f8 dd 3d 22 cf 56 be 52 20 b6 be d2 f9 74 be
       0.10838453 -0.20977452 -0.35571533 -0.23923424
000210 54 9a a3 be 41 63 14 3e aa c1 86 3e 95 80 2b be
       -0.3195368 0.14490987 0.2631963 -0.16748269
000220 9a eb be 3e 08 15 b3 3e 50 44 9b be 30 b6 60 3e
       0.37289125 0.34976983 -0.30325556 0.21944499
000230 0b f7 38 be d7 fc af 3d a8 42 ac be 3b f3 a8 be
       -0.1806299 0.08593147 -0.33644605 -0.3299807
000240 a0 32 f6 3d 4b cd ba be f2 2f 50 be 73 81 bd be
       0.12021375 -0.3648475 -0.2033079 -0.37012824
000250 8e 85 79 3d 36 26 73 3e e5 56 ad be b4 6d 18 bd
       0.060918383 0.23745045 -0.33855358 -0.037213996
000260 ec c3 49 3e 48 7d 72 3e 8c 92 ab 3e 95 1d de 3e
       0.19703645 0.23680604 0.33510244 0.43381944
000270 e1 1f fe be d8 64 1f 3e 2f 6a 8e be a1 42 9a be
       -0.49633697 0.15565813 -0.27815387 -0.3012896
000280 c5 62 c4 be 6b 10 b1 be cb 71 90 be e2 d0 8d 3e
       -0.38356605 -0.34582838 -0.28211817 0.27698427
000290 05 1d 13 be db f9 80 be 8f 09 98 3e 4f 28 4e 3e
       -0.14366539 -0.25190625 0.29694793 0.20132564
0002a0 49 33 90 3e 2c 31 af 3e 0c 9f a4 3e a7 bc 8d be
       0.28164127 0.34217203 0.32152593 -0.27682993
0002b0 a4 6d 42 3e ba cc 79 be 65 d7 f5 3d 0f 32 c2 bc
       0.18987137 -0.24394503 0.12003974 -0.02370551
0002c0 de 1e d1 3d 06 d2 ae bd 33 bd 6e 3e 32 b3 d7 be
       0.102109656 -0.085361525 0.23314361 -0.42128903
0002d0 2b da 9b 3e 85 bb 6d be 4f 60 1e be 92 ef b9 be
       0.30439886 -0.23216064 -0.15466426 -0.3631559
0002e0 3b 6e 02 bd 27 bd fe 3b 42 4f c4 3e dd 30 26 3e
       -0.031843405 0.0077740136 0.3834172 0.16229577
0002f0 83 4a 4b 3e 42 db c2 3e 7d 85 27 be 74 79 b4 be
       0.19852643 0.38057905 -0.16359515 -0.3524891
000300 ae b4 ab be 79 6b 5e bd 3b ca b6 3e 73 8c b7 bd
       -0.33536285 -0.054301713 0.35701165 -0.089623354
000310 41 8b 17 3e c7 41 d1 be 4f 49 9c 3d 5c 36 ca be
       0.14799215 -0.40870497 0.0763117 -0.39494598
000320 a7 7e 32 3a a9 f1 9b 3e e5 1e 44 3e fa a9 a2 be
       0.0006809034 0.3045781 0.1915241 -0.31770307
000330 d3 c9 5e 3e 53 9a 0b 3e a8 cd 8f 3e e7 9b a4 be
       0.21756677 0.13633089 0.2808659 -0.32150194
000340 52 cb 9b bd 07 4a 8f 3d 97 66 df 3e 57 3e b5 be
       -0.0760714 0.069965415 0.43632957 -0.35399124
000350 2b eb e9 3c 65 fd 4f 3e 89 12 5b bd f3 a7 3b be
       0.02855452 0.20311506 -0.053484473 -0.18325786
000360 c6 21 c2 3e d4 20 e2 3c 7d fe a6 be 26 74 29 3d
       0.37916392 0.027603544 -0.32616034 0.041370533
000370 bf fe 8a be 36 73 db 3b e9 fd f6 be 5a a4 fc be
       -0.2714748 0.006697084 -0.48240593 -0.4934414
000380 e0 90 c8 be 12 7d ac bc 6c ba cf be 07 39 1d 3d
       -0.3917303 -0.021055732 -0.40571916 0.038384464
000390 38 fb 96 be 2c 6d 8b 3e 8c 6a 9a 3d a7 ec 92 bd
       -0.2948854 0.2723173 0.075398535 -0.07174044
0003a0 30 39 5b bd 7b 7c 98 be ba 4e 9e bc 0b f2 63 be
       -0.053521335 -0.2978247 -0.01932465 -0.22260301
0003b0 88 25 09 3e f2 c9 e6 bd c0 fe 76 be f4 56 05 3e
       0.13393223 -0.11268987 -0.24120617 0.13021451
0003c0 59 7b 44 3e e9 cf b7 bd cf 48 95 be 53 c3 76 bb
       0.19187678 -0.089752026 -0.2915711 -0.0037653043
0003d0 b6 e3 c8 bd 38 0d b2 be e2 1f 6b 3e 5b e8 99 be
       -0.098090574 -0.3477571 0.22961381 -0.30060086
0003e0 46 bd d0 be ae 40 29 3e 79 87 f6 3d 56 00 d7 3d
       -0.40769404 0.1652858 0.12037558 0.10498111
0003f0 e8 99 cd 3a 4c 6c a0 3e 22 2a de 3e 7c a2 7c 3e
       0.0015686126 0.31332624 0.4339152 0.24671358

arith.constant4 f4 [64]
000000 23 e4 21 c0 1a f1 19 be 3b 7e ed bf 78 77 82 3f
       -2.5295494 -0.15033379 -1.8554147 1.0192709
000010 22 79 c7 bf 6c c6 13 40 a5 76 4a bf da 84 3d bf
       -1.5583842 2.3089857 -0.7908729 -0.7403084
000020 c9 52 ee 3f 2e 42 5d bf 0c 4a 05 c0 8b 88 18 40
       1.8619014 -0.8642911 -2.0826445 2.383334
000030 12 cc 09 c0 fe b0 cd bf 58 d6 46 3f 3b 6c 49 bf
       -2.1530805 -1.6069639 0.7767081 -0.7868077
000040 f2 5c c2 3f 5a 03 b0 bf c3 96 67 bf 22 47 07 bf
       1.5184615 -1.3751023 -0.9046442 -0.52842915
000050 fd 6f bd 3f 4b 54 74 3e 82 f1 55 40 6c af 15 40
       1.4799801 0.2386028 3.3428655 2.338832
000060 c9 f7 bd bf a4 1c ce 3f c3 4a 4e 3b 07 eb fc bf
       -1.4841243 1.610249 0.0031477667 -1.9759225
000070 a3 ac d1 bf 0e 81 3c 40 34 4f 87 3f 39 f8 fa 3f
       -1.638081 2.9453769 1.0571046 1.9607002
000080 26 1e c1 3e c0 ed c0 3c ef 56 3f bf 1d 21 26 c0
       0.37718314 0.023550868 -0.74742025 -2.595771
000090 f0 84 5b 40 43 18 de 3f a7 7e 5f c0 64 86 04 c0
       3.4299889 1.7351154 -3.4921052 -2.0707026
0000a0 60 b7 a2 3f 05 1a c5 bf 92 c6 93 40 63 c0 1b 40
       1.2712212 -1.5398566 4.6179895 2.4336174
0000b0 98 0e 44 40 6b 2e 78 bf 60 d8 9a 3f c6 17 53 bf
       3.0633907 -0.9694583 1.2097282 -0.8245815
0000c0 da 61 13 c0 dc 56 22 bf 4e 69 ef 3f 61 d4 0f 40
       -2.3028474 -0.63413787 1.8704011 2.2473376
0000d0 25 02 a7 3e 33 35 e3 bd 09 ea b8 bf 03 1b 96 bf
       0.32618824 -0.11094131 -1.4446422 -1.1726993
0000e0 8f f0 eb be c6 39 90 3f 36 78 e1 be 4e cd f9 3f
       -0.4608197 1.1267631 -0.44037026 1.9515779
0000f0 1e 60 56 3f ca 30 82 bf f9 9b 06 be 56 11 27 40
       0.83740413 -1.0171139 -0.13145436 2.610433

tfl.pseudo_qconst i1 [64, 128]
000000 e0 ca 45 54 fb 1e e5 e7 c7 d9 d0 e6 0a e2 ba 0d
       -32 -54 69 84 -5 30 -27 -25 -57 -39 -48 -26 10 -30 -70 13
000010 dc c3 ef fa e1 0a 0b c1 0e fb 2e 5f d8 d6 56 1f
       -36 -61 -17 -6 -31 10 11 -63 14 -5 46 95 -40 -42 86 31
000020 bc 37 f5 b5 dc cc cd 22 01 6f fd 6b 25 32 6d 39
       -68 55 -11 -75 -36 -52 -51 34 1 111 -3 107 37 50 109 57
000030 43 fa e9 54 ba 18 d3 f4 3f a6 e6 40 ac fb 15 3c
       67 -6 -23 84 -70 24 -45 -12 63 -90 -26 64 -84 -5 21 60
000040 08 13 3a c8 bd 3e 13 38 3c 2e 3d 38 2c 21 38 42
       8 19 58 -56 -67 62 19 56 60 46 61 56 44 33 56 66
000050 0b dd da eb 16 d3 05 09 16 cf 5f fd ce e3 7f 3d
       11 -35 -38 -21 22 -45 5 9 22 -49 95 -3 -50 -29 127 61
000060 b7 10 a4 45 5e 1c b6 45 40 0e 17 b1 f2 1e df 66
       -73 16 -92 69 94 28 -74 69 64 14 23 -79 -14 30 -33 102
000070 f0 25 cb 3d 42 33 20 c6 39 41 e0 1b e9 ec 2c 25
       -16 37 -53 61 66 51 32 -58 57 65 -32 27 -23 -20 44 37
000080 fb ad fd 12 e3 d9 06 18 12 d9 ce 2a 21 1f 04 35
       -5 -83 -3 18 -29 -39 6 24 18 -39 -50 42 33 31 4 53
000090 06 f9 0e 33 e3 cf d2 3a fa d7 f1 c2 ee 13 0f 25
       6 -7 14 51 -29 -49 -46 58 -6 -41 -15 -62 -18 19 15 37
0000a0 ed 15 38 1d 1e dd db 37 09 f4 16 f4 02 d7 38 3c
       -19 21 56 29 30 -35 -37 55 9 -12 22 -12 2 -41 56 60
0000b0 68 25 de 29 26 4b d2 fb 12 ec bd 3b 2c 0f 0f e2
       104 37 -34 41 38 75 -46 -5 18 -20 -67 59 44 15 15 -30
0000c0 27 e5 e4 da 08 fd 45 ea 0d bd 1a 08 0d da 60 02
       39 -27 -28 -38 8 -3 69 -22 13 -67 26 8 13 -38 96 2
0000d0 e1 cc 03 20 2a 0f f6 f6 09 1b 1f d5 31 eb 19 30
       -31 -52 3 32 42 15 -10 -10 9 27 31 -43 49 -21 25 48
0000e0 3c 06 2f ee 2a 1f 02 38 7f 15 35 c5 10 f9 36 d0
       60 6 47 -18 42 31 2 56 127 21 53 -59 16 -7 54 -48
0000f0 06 00 d7 db ed b1 fc 05 48 c2 c3 c0 fc 0d 21 e7
       6 0 -41 -37 -19 -79 -4 5 72 -62 -61 -64 -4 13 33 -25

tfl.pseudo_qconst1 i1 [32, 64]
000000 db 35 e6 34 d8 65 63 f6 61 30 37 0c 67 3b 62 05
       -37 53 -26 52 -40 101 99 -10 97 48 55 12 103 59 98 5
000010 2f 0d eb e0 cc 10 6f 78 db 0b ba e0 da 66 3b 41
       47 13 -21 -32 -52 16 111 120 -37 11 -70 -32 -38 102 59 65
000020 e7 53 4a 0c 65 e1 d6 14 0f a8 7f 79 e7 2a 0d 2b
       -25 83 74 12 101 -31 -42 20 15 -88 127 121 -25 42 13 43
000030 c2 cd 62 ca f5 5d be 31 39 21 f7 c3 f0 c4 1f 16
       -62 -51 98 -54 -11 93 -66 49 57 33 -9 -61 -16 -60 31 22
000040 e7 ee 2b 9b e9 ab 9e 41 e9 e1 fa 38 c9 ce f4 dd
       -25 -18 43 -101 -23 -85 -98 65 -23 -31 -6 56 -55 -50 -12 -35
000050 9b a4 c4 6f 57 ef a8 5d 48 c5 42 81 36 64 5f 32
       -101 -92 -60 111 87 -17 -88 93 72 -59 66 -127 54 100 95 50
000060 08 28 dc 17 14 53 1e dd b9 c3 de a1 1d 32 5a 1b
       8 40 -36 23 20 83 30 -35 -71 -61 -34 -95 29 50 90 27
000070 cc 57 07 d4 0b f5 b6 de 0e 67 a1 44 77 11 30 5f
       -52 87 7 -44 11 -11 -74 -34 14 103 -95 68 119 17 48 95
000080 b9 6a e0 e7 29 32 39 34 77 f1 dc c0 b3 9f 4e 51
       -71 106 -32 -25 41 50 57 52 119 -15 -36 -64 -77 -97 78 81
000090 05 fa 17 32 43 01 e3 44 00 2e f9 59 dc bb 62 c8
       5 -6 23 50 67 1 -29 68 0 46 -7 89 -36 -69 98 -56
0000a0 13 3a 08 55 fe f1 bd df 00 cb 2c 15 d3 e3 46 f0
       19 58 8 85 -2 -15 -67 -33 0 -53 44 21 -45 -29 70 -16
0000b0 da 7d 16 3d d8 c0 03 3e ff 11 7f 68 1c 70 44 e3
       -38 125 22 61 -40 -64 3 62 -1 17 127 104 28 112 68 -29
0000c0 87 c3 24 84 e1 ef f5 9d ca 19 1f da cc 2c b5 b0
       -121 -61 36 -124 -31 -17 -11 -99 -54 25 31 -38 -52 44 -75 -80
0000d0 9f dc 4a c0 c0 71 1c 9b bb b7 75 31 17 e0 f5 22
       -97 -36 74 -64 -64 113 28 -101 -69 -73 117 49 23 -32 -11 34
0000e0 78 cb 0b 4e 9f f6 fe 57 49 61 d3 91 f4 7c 38 d5
       120 -53 11 78 -97 -10 -2 87 73 97 -45 -111 -12 124 56 -43
0000f0 71 c1 7f 19 27 a3 c5 a6 64 3f f0 02 31 c7 9a 00
       113 -63 127 25 39 -93 -59 -90 100 63 -16 2 49 -57 -102 0

sequential_6_1/dense_24_1/MatMul i1 [128, 64]
000000 00 00 00 00 00 00 00 00 00 6c 00 00 19 00 00 c2
       0 0 0 0 0 0 0 0 0 108 0 0 25 0 0 -62
000010 01 00 01 00 00 21 19 00 8a e5 00 25 01 00 01 ff
       1 0 1 0 0 33 25 0 -118 -27 0 37 1 0 1 -1
000020 00 3f 02 00 52 75 00 a7 00 00 00 00 00 00 d8 00
       0 63 2 0 82 117 0 -89 0 0 0 0 0 0 -40 0
000030 00 00 00 5e 00 00 01 00 00 d6 00 00 81 00 00 01
       0 0 0 94 0 0 1 0 0 -42 0 0 -127 0 0 1
000040 08 ff 00 00 ff 00 00 01 00 00 ff 00 7f ff 00 00
       8 -1 0 0 -1 0 0 1 0 0 -1 0 127 -1 0 0
000050 ff 00 d3 ff 00 ff ff 00 d0 ff 00 00 ff 00 cd ff
       -1 0 -45 -1 0 -1 -1 0 -48 -1 0 0 -1 0 -51 -1
000060 00 00 ff 00 00 e3 00 00 ff 00 ff ff 00 f2 f3 00
       0 0 -1 0 0 -29 0 0 -1 0 -1 -1 0 -14 -13 0
000070 ee de ff 21 ff 00 c5 ff 00 00 ff 00 5c ff 00 00
       -18 -34 -1 33 -1 0 -59 -1 0 0 -1 0 92 -1 0 0
000080 03 fd 32 60 c2 50 0d 18 b9 db 2c 9b 0d d2 ee be
       3 -3 50 96 -62 80 13 24 -71 -37 44 -101 13 -46 -18 -66
000090 1d ee 2f dc 46 7f ea d7 f1 ca 4f 00 29 15 13 09
       29 -18 47 -36 70 127 -22 -41 -15 -54 79 0 41 21 19 9
0000a0 0b f0 da e7 ff c3 ce fe 31 f6 1f 18 b9 f1 df 00
       11 -16 -38 -25 -1 -61 -50 -2 49 -10 31 24 -71 -15 -33 0
0000b0 bc 01 0d 17 c1 fe 41 e1 f1 11 f6 da 14 fc af e1
       -68 1 13 23 -63 -2 65 -31 -15 17 -10 -38 20 -4 -81 -31
0000c0 66 16 00 ff 1f 00 ff ff 02 c8 00 00 fa 00 0f 1f
       102 22 0 -1 31 0 -1 -1 2 -56 0 0 -6 0 15 31
0000d0 00 00 a2 00 00 3c 15 29 b2 78 00 42 00 00 3a 00
       0 0 -94 0 0 60 21 41 -78 120 0 66 0 0 58 0
0000e0 00 00 00 00 db 00 00 00 00 00 36 00 00 00 d5 e2
       0 0 0 0 -37 0 0 0 0 0 54 0 0 0 -43 -30
0000f0 2b a1 00 01 00 00 fe 00 00 00 00 00 81 d5 ff 00
       43 -95 0 1 0 0 -2 0 0 0 0 0 -127 -43 -1 0
